model_weights.pth (torch, 451137 bytes, 48 tensors)

token_embedding_table.weight f4 [96, 54]
-0.046462927 0.01864614 0.043390445 -0.011937756 0.02709027 -0.05537012 0.015430361 -0.01990632
-0.063789636 -0.044215944 0.030023884 0.02203981 0.024781754 0.0018102301 -0.10891566 -0.05550722
-0.051383853 -0.0268327 0.013895058 0.11467314 0.024688546 -0.015533994 -0.01563551 0.02438838
0.12156509 0.092639394 -0.0041835746 0.051776066 -0.076198995 0.04199734 -2.6812631e-05 0.032153476
-0.031348143 -0.11002622 -0.016910365 0.0091506345 -0.09850082 0.005737894 0.049654033 -0.037316214
-0.016219703 0.08725157 0.03467865 0.016460117 0.039255653 -0.012614532 -0.040099133 0.025002174
0.034853395 -0.015588041 -0.020400878 0.036936145 -0.06917917 0.0017346283 -0.024211153 0.045849692
-0.029648725 -0.005394248 0.047358286 -0.067947425 0.00897686 -0.016245242 -0.046125367 0.014767013
0.036084905 0.031918198 -0.011273168 0.0031995457 -0.09596823 -0.033136394 -0.003940887 -0.043834243
0.038540274 0.102867335 0.0028386402 -0.019350577 -0.029808275 0.04002079 0.13242564 0.011507217
0.026770089 0.03425556 -0.051478658 0.044350006 0.0006439572 -0.0059555965 -0.05344599 -0.107381284
-0.04858255 -0.011530388 -0.033389043 0.030274522 0.035397142 -0.013718086 -0.03153807 0.050208237
0.020337276 0.01892043 -0.044492334 0.033463743 -0.070740774 0.006461441 0.030210039 -0.05213342
-0.032773353 0.05232967 0.003287638 -0.010519944 -0.05105826 0.061763067 0.09798562 -0.0031563076
-0.022696922 0.008102788 0.010549441 0.024079857 -0.057972033 -0.04766829 -0.15216959 -0.022404594
0.06847098 -0.017742625 0.050431576 -0.05051274 -0.06049176 -0.031607516 -0.04327465 0.005168655
-0.010735172 -0.002601738 0.026619812 -0.011178947 0.052443564 -0.04689466 0.07262537 0.008684641
0.038823836 -0.008695618 0.09526579 -0.11818846 0.050511822 0.0033323613 0.041386306 -0.11127734
0.13357326 0.039609697 -0.05254405 0.018367141 -0.019177923 -0.01629108 -0.16233148 0.021068705
0.09873121 -0.06865353 -0.016071051 0.04262465 0.0646146 -0.033904485 -0.09904561 0.07667426
0.0020514198 -0.07803847 -0.003629027 -0.036599323 0.0066831782 -0.015408824 -0.09676577 0.034705736
-0.009200853 -0.08722156 0.01820942 -0.11780861 0.026797809 -0.01858307 -0.0025192813 -0.0085811885
0.028795248 0.08464311 0.008689936 -0.035942223 -0.06055965 0.047279645 0.0129684415 0.053187594
-0.10263054 0.087578475 0.053728353 0.084303625 -0.1388666 0.1105588 -0.017274845 -0.0011023828
0.04244393 0.035692785 0.015993573 -0.07550815 0.10295416 -0.018480968 0.107830554 0.052065134
0.0434332 -0.024074651 0.03032742 -0.032618586 -0.06227979 -0.05716724 0.12013389 -0.0117494315
-0.014634005 0.08651068 0.022776833 -0.10446643 -0.035836123 0.032783993 -0.03554622 -0.05517883
0.08929416 0.020922728 0.013054474 -0.0181325 0.006037312 0.0022707826 -0.008687256 -0.011427499
-0.009296075 -0.12977313 0.012103053 0.008478382 0.06708323 0.08929396 -0.0067101894 0.035206962
0.012405762 -0.0018110009 -0.08835612 -0.014195592 -0.02652748 -0.048596963 -0.0023013984 0.026523435
0.11454895 0.091220036 -0.11686729 0.083810195 -0.030663112 0.007855419 0.057270437 0.025818931
-0.010985244 -0.01668025 -0.05070799 -0.033211082 0.119661085 0.018741516 0.031191593 -0.06422757
00000000: e94f 3ebd cabf 983c 2eba 313d 9496 43bc
00000010: 6aec dd3c c7cb 62bd a0cf 7c3c 9412 a3bc
00000020: 24a4 82bd c71b 35bd a6f4 f53c d58c b43c
00000030: 1b03 cb3c 3e45 ed3a 2c0f dfbd 8a5b 63bd
00000040: e077 52bd 40d0 dbbc 19a8 633c c0d9 ea3d
00000050: a23f ca3c 4b82 7ebc 0b16 80bc 24ca c73c
00000060: 1ef7 f83d b9b9 bd3d 5e16 89bb 2413 543d
00000070: 380e 9cbd 6705 2c3d b0eb e0b7 5db3 033d
00000080: e966 00bd 6d55 e1bd 9b87 8abc 8bec 153c
00000090: ccba c9bd f204 bc3b 0762 4b3d e3d8 18bd
000000a0: 2fdf 84bc f3b0 b23d 330b 0e3d 5ed7 863c
000000b0: 89ca 203d 2fad 4ebc fd3e 24bd 5cd1 cc3c
000000c0: 6fc2 0e3d fc64 7fbc be1f a7bc 5b4a 173d
000000d0: cfad 8dbd 785c e33a 7856 c6bc e3cc 3b3d
000000e0: e2e1 f2bc 3bc2 b0bb c3fa 413d 0528 8bbd
000000f0: ae13 133c be14 85bc f4ed 3cbd 57f1 713c
00000100: c4cd 133d a8bc 023d 18b3 38bc 78af 513b
00000110: fe8a c4bd 07ba 07bd 8e22 81bb 898b 33bd
00000120: 68dc 1d3d 1cac d23d 7b08 3a3b 1a85 9ebc
00000130: 7c30 f4bc d7ec 233d 969a 073e c488 3c3c
00000140: f24c db3c 8f4f 0c3d 49db 52bd 5aa8 353d
00000150: 3ccf 283a 2a27 c3bb 2fea 5abd b8ea dbbd
00000160: 7ffe 46bd f4e9 3cbc f3c2 08bd 4602 f83c
00000170: 98fc 103d d3c1 60bc 102e 01bd 27a7 4d3d
00000180: 5c9a a63c 05ff 9a3c 983d 36bd 4711 093d
00000190: 8ae0 90bd 7fba d33b 0b7b f73c da89 55bd
000001a0: 5a3d 06bd a357 563d 6a75 573b d85b 2cbc
000001b0: 7722 51bd 45fb 7c3d afac c83d 0eda 4ebb
000001c0: e5ee b9bc 8ec1 043c 90d7 2c3c 1f43 c53c
000001d0: 1574 6dbd d33f 43bd 58d2 1bbe d789 b7bc
000001e0: 833a 8c3d fb58 91bc 5791 4e3d 72e6 4ebd
000001f0: 35c6 77bd e276 01bd c240 31bd d25d a93b
00000200: 93e2 2fbc ec81 2abb cb11 da3c e727 37bc
00000210: 10cf 563d 9d14 40bd 9cbc 943d 064a 0e3c
00000220: be05 1f3d 1178 0ebc b61a c33d cb0c f2bd
00000230: 7ce5 4e3d bf63 5a3b b084 293d 60e5 e3bd
00000240: 6ec7 083e c73d 223d 6e38 57bd b076 963c
00000250: 051b 9dbc df74 85bc 393a 26be 4798 ac3c
00000260: 9733 ca3d 399a 8cbd 70a7 83bc 2f97 2e3d
00000270: a954 843d 6edf 0abd 6dd8 cabd 6507 9d3d
00000280: 1d71 063b a2d2 9fbd f8d4 6dbb 2ce9 15bd
00000290: 90fe da3b 4b75 7cbc 222d c6bd 9a27 0e3d
000002a0: 2dbf 16bc 38a1 b2bd ec2b 953c a445 f1bd
000002b0: 1487 db3c 863b 98bc 871a 25bb 1d98 0cbc
000002c0: 03e4 eb3c 5e59 ad3d 3c60 0e3c 2738 13bd
000002d0: 650d 78bd 4da8 413d 9679 543c 3cdb 593d
000002e0: f62f d2bd 585c b33d 4312 5c3d 61a7 ac3d
000002f0: 0c33 0ebe a76c e23d fa83 8dbc d47d 90ba
00000300: b0d9 2d3d 9932 123d f404 833c 04a4 9abd
00000310: a1d9 d23d 6665 97bc 44d6 dc3d 4042 553d
00000320: 03e7 313d 3438 c5bc 3671 f83c 119b 05bd
00000330: 1819 7fbd 3228 6abd c208 f63d b080 40bc
00000340: 77c3 6fbc 832c b13d 7b96 ba3c 7ff2 d5bd
00000350: e6c8 12bd 8248 063d ea98 11bd 3203 62bd
00000360: dbdf b63d 2466 ab3c 6fe2 553c 9c8a 94bc
00000370: a5d4 c53b 69d1 143b fe54 0ebc 683a 3bbc
00000380: 914e 18bc 3fe3 04be e24b 463c e9e8 0a3c
00000390: ef62 893d c0df b63d 26e1 dbbb 2d35 103d
000003a0: 8a41 4b3c 1b5f edba 0ef4 b4bd a194 68bc
000003b0: 2850 d9bc 9c0d 47bd 0fd3 16bb ad47 d93c
000003c0: a498 ea3d 92d1 ba3d 1e58 efbd aea4 ab3d
000003d0: 3531 fbbc 04b4 003c 6894 6a3d 3982 d33c
000003e0: 74fb 33bc 05a5 88bc 2eb3 4fbd 5808 08bd
000003f0: df10 f53d cf87 993c 8385 ff3c bf89 83bd

position_embedding_table.weight f4 [32, 54]
0.05702244 -0.0029861708 0.0025255592 0.13136752 0.071077414 -0.0079314755 -0.29218182 -0.02311533
0.06734142 -0.038322967 0.12023884 -0.064292975 -0.058456134 0.005249635 0.038154684 0.05153234
0.054999035 0.049337786 0.054640513 -0.0023603102 0.04797306 0.101692796 -0.016065022 0.042570386
0.08147767 0.04803513 -0.0029923744 -0.026712254 -0.029928666 -0.23622885 0.038244583 0.056046527
-0.044675633 -0.026257183 -0.07721079 -0.03522917 0.021703625 -0.017085843 -0.012915689 -0.22507371
0.095136926 -0.08459612 0.03790735 0.22330235 -0.007979153 0.05280935 -0.026730686 0.06498032
-0.118554816 0.020036647 -0.0028506403 0.019531595 0.027294232 0.04168911 0.043611187 -0.014650905
0.0012930599 0.0868091 0.070905276 -0.007892865 -0.21843188 -0.025227757 0.07224184 -0.04651679
0.08816318 -0.050602067 -0.057418898 0.005903044 0.06527264 0.033329967 0.044629015 0.0496501
0.04082421 0.042338513 0.056455996 0.08911624 -0.03610076 0.026516294 0.0760707 0.02823123
-0.025507009 -0.049791284 -0.02486281 -0.21678533 0.02745641 0.047513142 -0.06738345 -0.03902335
-0.054717522 -0.057811253 0.011368066 0.01100415 -0.0033280584 -0.21405584 0.07417797 -0.08410813
0.037789613 0.18060948 -0.003945567 0.042426318 -0.0123727275 0.07659528 -0.10270098 0.013660119
-0.0013120208 0.025334038 0.025666602 0.035234537 0.035308182 -0.021135658 -0.0020478992 0.07797808
0.084206544 -0.0013256357 -0.21369341 -0.025903583 0.06075268 -0.06128355 0.0851661 -0.04701323
-0.057005394 -0.0062988047 0.078036875 0.02562911 0.05959877 0.041571494 0.026484516 0.07343354
0.053694654 0.079940885 -0.032823745 0.01959361 0.05086982 0.017790664 -0.028419683 -0.06128907
-0.026568325 -0.20850281 0.01946313 0.04679795 -0.08193693 -0.04790084 -0.070214786 -0.06851202
0.0081607625 0.04365821 0.024750512 -0.20486343 0.05719408 -0.08265072 0.03525083 0.16019717
-0.002417789 0.04182665 -0.0060266107 0.066707715 -0.07399735 0.015666135 0.0040631336 0.017588357
0.025387246 0.040937968 0.03939017 -0.030112077 -0.0010084934 0.07813243 0.09442827 0.0043807602
-0.20080203 -0.019554107 0.055697303 -0.061953317 0.08395291 -0.04263254 -0.051409233 -0.0054430147
0.089257434 0.014594946 0.07083123 0.035546035 0.012465793 0.10212412 0.05486848 0.07074344
-0.037218202 0.013628206 0.038219195 0.015103968 -0.032987848 -0.06070157 -0.03281638 -0.19695637
0.012776819 0.049472712 -0.08888798 -0.04765068 -0.07357313 -0.07286135 0.010678148 0.079410836
0.05798964 -0.20065503 0.04142888 -0.07783951 0.037100658 0.13811074 0.009284475 0.038503394
0.00378763 0.06767103 -0.039832562 0.026489768 0.010208387 0.021577187 0.026991898 0.046287917
0.027881263 -0.028732903 -0.0016746258 0.07341349 0.092140116 0.0021490753 -0.19358188 -0.016041555
0.043952625 -0.07128412 0.071566746 -0.047207456 -0.05317768 -0.012645081 0.08968733 0.007606992
0.0721116 0.027177103 -0.0050020786 0.12249233 0.04540322 0.051806618 -0.033398222 0.0015547186
0.008766142 0.0071434993 -0.037130147 -0.06651564 -0.036859345 -0.1912155 0.0014438522 0.040227495
-0.100342646 -0.0440009 -0.08214123 -0.07981437 0.013874203 0.10776608 0.0837033 -0.1966675
00000000: 5d90 693d a2b3 43bb da83 253b 3585 063e
00000010: 0991 913d 05f3 01bc db98 95be 5c5c bdbc
00000020: 4cea 893d 8bf8 1cbd c83f f63d 09ac 83bd
00000030: b36f 6fbd 2105 ac3b 1648 1c3d 9313 533d
00000040: ab46 613d 6b16 4a3d bbce 5f3d 6faf 1abb
00000050: 667f 443d 5044 d03d cb9a 83bc 495e 2e3d
00000060: c4dd a63d 7cc0 443d b61b 44bb a8d3 dabc
00000070: f62c f5bc fae5 71be 5aa6 1c3d 0b91 653d
00000080: ccfd 36bd 4e19 d7bc b120 9ebd 764c 10bd
00000090: cdcb b13c 9cf7 8bbc 539c 53bc b979 66be
000000a0: 26d7 c23d bb40 adbd bd44 1b3d 5fa9 643e
000000b0: feba 02bc 9e4e 583d 50fa dabc 6714 853d
000000c0: decc f2bd e523 a43c cfd1 3abb b900 a03c
000000d0: 2798 df3c 33c2 2a3d a5a1 323d 590a 70bc
000000e0: e47b a93a f8c8 b13d c936 913d 1351 01bc
000000f0: 9bac 5fbe 71aa cebc 88f3 933d 6488 3ebd
00000100: e68e b43d 1d44 4fbd 1430 6bbd 526e c13b
00000110: a9ad 853d 0185 083d eacc 363d e75d 4b3d
00000120: 4937 273d 266b 2d3d 673e 673d 9382 b63d
00000130: 64de 13bd b338 d93c f5ca 9b3d 2e45 e73c
00000140: 13f4 d0bc f2f1 4bbd 17ad cbbc f9fc 5dbe
00000150: 44ec e03c 249d 423d 5600 8abd f3d6 1fbd
00000160: 7b1f 60bd 7ecb 6cbd 2041 3a3c c04a 343c
00000170: 8e1b 5abb 7431 5bbe 9fea 973d e240 acbd
00000180: 48c9 1a3d b1f1 383e d149 81bb 38c7 2d3d
00000190: fbb6 4abc fcdd 9c3d e454 d2bd b1ce 5f3c
000001a0: 1df8 abba 5489 cf3c c442 d23c 1752 103d
000001b0: 509f 103d b024 adbc 0c36 06bb f9b2 9f3d
000001c0: 7b74 ac3d f4c0 adba 72d2 5abe c033 d4bc
000001d0: cdd7 783d 7604 7bbd 906b ae3d f290 40bd
000001e0: 7d7e 69bd 3466 cebb ccd1 9f3d 24f4 d13c
000001f0: d71d 743d df46 2a3d 0ef6 d83c 5364 963d
00000200: edee 5b3d 0cb8 a33d 3172 06bd c782 a03c
00000210: df5c 503d babd 913c 65d0 e8bc 3f0a 7bbd
00000220: d1a5 d9bc c381 55be 2471 9f3c 35af 3f3d
00000230: 8dce a7bd ac33 44bd c5cc 8fbd 0850 8cbd
00000240: b8b4 053c f4d2 323d 96c1 ca3c b8c7 51be
00000250: 5744 6a3d c844 a9bd 2d63 103d ba0a 243e
00000260: c573 1ebb 6c52 2b3d e07a c5bb 0e9e 883d
00000270: ec8b 97bd 4456 803c 0924 853b 7515 903c
00000280: eaf8 cf3c 92ae 273d 9657 213d 9aad f6bc
00000290: 6c2f 84ba e503 a03d 9c63 c13d 7b8c 8f3b
000002a0: 0c9f 4dbe ef2f a0bc db22 643d c3c2 7dbd
000002b0: 81ef ab3d 759f 2ebd 7d92 52bd 515b b2bb
000002c0: 9acc b63d a41f 6f3c f70f 913d b898 113d
000002d0: 533d 4c3c 7326 d13d c5bd 603d f0e1 903d
000002e0: 1d72 18bd d748 5f3c bb8b 1c3d a276 773c
000002f0: 441e 07bd 36a2 78bd 786a 06bd eeae 49be
00000300: dd55 513c e6a3 4a3d e70a b6bd 5c2d 43bd
00000310: 82ad 96bd 5538 95bd 66f3 2e3c 26a2 a23d
00000320: 8b86 6d3d 8378 4dbe 54b1 293d 526a 9fbd
00000330: dcf6 173d e76c 0d3e e91d 183c bcb5 1d3d
00000340: e339 783b 1c97 8a3d 7827 23bd 1201 d93c
00000350: 1441 273c a4c2 b03c 1d1e dd3c 6698 3d3d
00000360: 3f67 e43c 4461 ebbc 1e7f dbba d059 963d
00000370: f5b3 bc3d 80d7 0c3b 543a 46be 9469 83bc
00000380: ab07 343d 69fd 91bd 9691 923d 9b5c 41bd
00000390: d7d0 59bd 502d 4fbc fead b73d 1344 f93b
000003a0: 3faf 933d 84a2 de3c 7ae8 a3bb 42dd fa3d
000003b0: baf8 393d 2d33 543d 93cc 08bd b3c7 cb3a
000003c0: dd9f 0f3c 0414 ea3b c815 18bd 5a39 88bd
000003d0: d3f9 16bd ffcd 43be a43f bd3a 96c5 243d
000003e0: 7280 cdbd 4a3a 34bd a939 a8bd b775 a3bd
000003f0: a050 633c 76b4 dc3d a36c ab3d 3563 49be

blocks.0.self_attn.tril f4 [32, 32]
1.0 0.0 0.0 0.0 0.0 0.0 0.0 0.0
0.0 0.0 0.0 0.0 0.0 0.0 0.0 0.0
0.0 0.0 0.0 0.0 0.0 0.0 0.0 0.0
0.0 0.0 0.0 0.0 0.0 0.0 0.0 0.0
1.0 1.0 0.0 0.0 0.0 0.0 0.0 0.0
0.0 0.0 0.0 0.0 0.0 0.0 0.0 0.0
0.0 0.0 0.0 0.0 0.0 0.0 0.0 0.0
0.0 0.0 0.0 0.0 0.0 0.0 0.0 0.0
1.0 1.0 1.0 0.0 0.0 0.0 0.0 0.0
0.0 0.0 0.0 0.0 0.0 0.0 0.0 0.0
0.0 0.0 0.0 0.0 0.0 0.0 0.0 0.0
0.0 0.0 0.0 0.0 0.0 0.0 0.0 0.0
1.0 1.0 1.0 1.0 0.0 0.0 0.0 0.0
0.0 0.0 0.0 0.0 0.0 0.0 0.0 0.0
0.0 0.0 0.0 0.0 0.0 0.0 0.0 0.0
0.0 0.0 0.0 0.0 0.0 0.0 0.0 0.0
1.0 1.0 1.0 1.0 1.0 0.0 0.0 0.0
0.0 0.0 0.0 0.0 0.0 0.0 0.0 0.0
0.0 0.0 0.0 0.0 0.0 0.0 0.0 0.0
0.0 0.0 0.0 0.0 0.0 0.0 0.0 0.0
1.0 1.0 1.0 1.0 1.0 1.0 0.0 0.0
0.0 0.0 0.0 0.0 0.0 0.0 0.0 0.0
0.0 0.0 0.0 0.0 0.0 0.0 0.0 0.0
0.0 0.0 0.0 0.0 0.0 0.0 0.0 0.0
1.0 1.0 1.0 1.0 1.0 1.0 1.0 0.0
0.0 0.0 0.0 0.0 0.0 0.0 0.0 0.0
0.0 0.0 0.0 0.0 0.0 0.0 0.0 0.0
0.0 0.0 0.0 0.0 0.0 0.0 0.0 0.0
1.0 1.0 1.0 1.0 1.0 1.0 1.0 1.0
0.0 0.0 0.0 0.0 0.0 0.0 0.0 0.0
0.0 0.0 0.0 0.0 0.0 0.0 0.0 0.0
0.0 0.0 0.0 0.0 0.0 0.0 0.0 0.0
00000000: 0000 803f 0000 0000 0000 0000 0000 0000
00000010: 0000 0000 0000 0000 0000 0000 0000 0000
00000020: 0000 0000 0000 0000 0000 0000 0000 0000
00000030: 0000 0000 0000 0000 0000 0000 0000 0000
00000040: 0000 0000 0000 0000 0000 0000 0000 0000
00000050: 0000 0000 0000 0000 0000 0000 0000 0000
00000060: 0000 0000 0000 0000 0000 0000 0000 0000
00000070: 0000 0000 0000 0000 0000 0000 0000 0000
00000080: 0000 803f 0000 803f 0000 0000 0000 0000
00000090: 0000 0000 0000 0000 0000 0000 0000 0000
000000a0: 0000 0000 0000 0000 0000 0000 0000 0000
000000b0: 0000 0000 0000 0000 0000 0000 0000 0000
000000c0: 0000 0000 0000 0000 0000 0000 0000 0000
000000d0: 0000 0000 0000 0000 0000 0000 0000 0000
000000e0: 0000 0000 0000 0000 0000 0000 0000 0000
000000f0: 0000 0000 0000 0000 0000 0000 0000 0000
00000100: 0000 803f 0000 803f 0000 803f 0000 0000
00000110: 0000 0000 0000 0000 0000 0000 0000 0000
00000120: 0000 0000 0000 0000 0000 0000 0000 0000
00000130: 0000 0000 0000 0000 0000 0000 0000 0000
00000140: 0000 0000 0000 0000 0000 0000 0000 0000
00000150: 0000 0000 0000 0000 0000 0000 0000 0000
00000160: 0000 0000 0000 0000 0000 0000 0000 0000
00000170: 0000 0000 0000 0000 0000 0000 0000 0000
00000180: 0000 803f 0000 803f 0000 803f 0000 803f
00000190: 0000 0000 0000 0000 0000 0000 0000 0000
000001a0: 0000 0000 0000 0000 0000 0000 0000 0000
000001b0: 0000 0000 0000 0000 0000 0000 0000 0000
000001c0: 0000 0000 0000 0000 0000 0000 0000 0000
000001d0: 0000 0000 0000 0000 0000 0000 0000 0000
000001e0: 0000 0000 0000 0000 0000 0000 0000 0000
000001f0: 0000 0000 0000 0000 0000 0000 0000 0000
00000200: 0000 803f 0000 803f 0000 803f 0000 803f
00000210: 0000 803f 0000 0000 0000 0000 0000 0000
00000220: 0000 0000 0000 0000 0000 0000 0000 0000
00000230: 0000 0000 0000 0000 0000 0000 0000 0000
00000240: 0000 0000 0000 0000 0000 0000 0000 0000
00000250: 0000 0000 0000 0000 0000 0000 0000 0000
00000260: 0000 0000 0000 0000 0000 0000 0000 0000
00000270: 0000 0000 0000 0000 0000 0000 0000 0000
00000280: 0000 803f 0000 803f 0000 803f 0000 803f
00000290: 0000 803f 0000 803f 0000 0000 0000 0000
000002a0: 0000 0000 0000 0000 0000 0000 0000 0000
000002b0: 0000 0000 0000 0000 0000 0000 0000 0000
000002c0: 0000 0000 0000 0000 0000 0000 0000 0000
000002d0: 0000 0000 0000 0000 0000 0000 0000 0000
000002e0: 0000 0000 0000 0000 0000 0000 0000 0000
000002f0: 0000 0000 0000 0000 0000 0000 0000 0000
00000300: 0000 803f 0000 803f 0000 803f 0000 803f
00000310: 0000 803f 0000 803f 0000 803f 0000 0000
00000320: 0000 0000 0000 0000 0000 0000 0000 0000
00000330: 0000 0000 0000 0000 0000 0000 0000 0000
00000340: 0000 0000 0000 0000 0000 0000 0000 0000
00000350: 0000 0000 0000 0000 0000 0000 0000 0000
00000360: 0000 0000 0000 0000 0000 0000 0000 0000
00000370: 0000 0000 0000 0000 0000 0000 0000 0000
00000380: 0000 803f 0000 803f 0000 803f 0000 803f
00000390: 0000 803f 0000 803f 0000 803f 0000 803f
000003a0: 0000 0000 0000 0000 0000 0000 0000 0000
000003b0: 0000 0000 0000 0000 0000 0000 0000 0000
000003c0: 0000 0000 0000 0000 0000 0000 0000 0000
000003d0: 0000 0000 0000 0000 0000 0000 0000 0000
000003e0: 0000 0000 0000 0000 0000 0000 0000 0000
000003f0: 0000 0000 0000 0000 0000 0000 0000 0000

blocks.0.self_attn.query.weight f4 [27, 54]
0.06270792 -0.22025317 0.014194514 -0.06457445 0.2587845 -0.032441985 -0.008614214 -0.055849012
0.1422092 -0.04985352 0.119918674 0.03938594 -0.0051547657 0.24648273 0.008783189 0.11750675
0.1503745 -0.12253068 -0.1594247 0.1558596 0.21666802 -0.06238751 -0.075441316 0.25600958
-0.06333696 0.258084 0.08197241 -0.15532377 -0.013260777 0.21829015 0.15575273 -0.101552896
-0.15807074 -0.20065527 0.08129853 0.050291725 0.13368855 0.089856796 0.13102795 0.20356426
0.005237928 -0.13308626 0.14717339 -0.25190282 -0.07133497 -0.0039606537 -0.09413553 0.12105515
-0.32829127 0.0073398757 -0.04931106 -0.062267184 -0.10643562 -0.20912135 0.010039485 0.038251016
0.011375045 0.35687545 0.046295583 0.04227825 -0.14710894 0.043160763 -0.023517534 -0.05310816
-0.005206402 -0.023403 0.099925935 -0.13468434 0.075757526 -0.0021085786 -0.022772156 -0.045418184
0.023803275 -0.046064448 -0.029434595 0.02811728 0.011470019 -0.08880341 0.023981087 -0.07708545
-0.034054384 -0.06918865 0.014913962 -0.2529139 -0.10092446 0.10210308 -0.009547045 0.008989694
-0.04925542 -0.011073473 -0.004017413 -0.14214179 -0.2968023 -0.30808544 0.20541403 0.018048527
0.0063933576 0.28035808 0.04798998 0.048723344 0.033336848 0.0031409261 -0.2061385 0.005110368
0.083691694 0.015342585 0.09891279 0.13871886 0.02881815 0.0042835837 -0.04475907 -0.422481
-0.12367835 0.027767627 0.26523432 0.037446678 -0.024926843 0.029750083 -0.024470143 0.0035139679
0.024491832 0.011130039 -0.034633204 0.018044122 0.02045139 -0.01799814 0.0016556126 -0.045354914
0.03047218 0.015194595 0.011995201 -0.058053397 0.018658353 -0.046764415 -0.02512299 0.0061999103
0.00074513693 0.39413363 0.10910104 0.063356586 0.052393842 0.06522673 -0.0011586859 0.024058403
-0.039764423 -0.0943389 -0.08475911 0.20771255 -0.04357084 0.040489733 -0.059396118 -0.15098019
0.02738893 -0.08732189 -0.06322926 -0.045464106 0.07040226 0.0111127235 0.019025441 0.028771475
-0.045859296 -0.041891214 0.0141838975 0.016617624 0.043144226 0.37256378 0.05611887 0.03918482
-0.15397213 0.024926692 0.005278561 -0.03718047 0.01964793 0.005074966 -0.015951082 -0.02119179
0.050624926 0.008479006 -0.083982624 0.0036672873 0.06532514 0.012022701 -0.03384005 0.028919118
0.024016535 -0.062156636 -0.0020441315 0.01848883 0.0061645685 -0.032123014 0.0034482155 -0.2987036
-0.055947144 0.052488875 -0.016356064 -0.03152475 0.029919328 0.0057785143 0.054611705 -0.14726639
-0.24435167 -0.2572235 0.2726749 0.028231787 -0.015210394 0.16636506 0.027612738 0.013224477
0.012887627 0.05059477 -0.24900903 0.010516252 -0.006154104 -0.035495874 0.08458467 0.06446997
0.019727087 0.091990404 -0.036918115 -0.24566689 -0.091995955 -0.025446137 0.2401702 -0.044663087
-0.0051013865 0.006321471 0.03822626 -0.0073926784 0.015751306 0.033164944 -0.12410526 -0.055213653
-0.0406558 -0.021106347 -0.026473863 -0.025202762 -0.027867507 -0.060431894 0.059379436 0.0073375665
0.026554037 0.032456215 -0.030364271 0.048553944 0.01651388 0.46837747 -0.0003653298 0.0018317259
-0.0026323292 -0.04592598 0.076196805 0.07818447 -0.0071451105 -0.056926038 -0.033446785 0.22169581
00000000: 036d 803d 0c8a 61be 1b90 683c 9c3f 84bd
00000010: 677f 843e e3e1 04bd a222 0dbc efc1 64bd
00000020: 4a9f 113e 3433 4cbd ec97 f53d 2753 213d
00000030: 4fe9 a8bb f865 7c3e 5de7 0f3c 61a7 f03d
00000040: c6fb 193e 5df1 fabd 3b40 23be a999 1f3e
00000050: 39de 5d3e 0c8a 7fbd fa80 9abd b013 833e
00000060: cfb6 81bd 9623 843e 27e1 a73d 320d 1fbe
00000070: bb43 59bc 7487 5f3e a57d 1f3e f7fa cfbd
00000080: 4cdd 21be 9378 4dbe d87f a63d b2fe 4d3d
00000090: a7e5 083e d706 b83d 312c 063e 2673 503e
000000a0: eda2 ab3b c447 08be 9fb4 163e 68f9 80be
000000b0: 1218 92bd 5fc8 81bb 21ca c0bd c3eb f73d
000000c0: cb15 a8be 5783 f03b 65fa 49bd e00b 7fbd
000000d0: ebfa d9bd e823 56be a77c 243c 19ad 1c3d
000000e0: 665e 3a3c 61b8 b63e 70a0 3d3d f52b 2d3d
000000f0: baa3 16be 57c9 303d d8a7 c0bc f187 59bd
00000100: 779a aabb a6b7 bfbc f8a5 cc3d b1ea 09be
00000110: c326 9b3d 1430 0abb ac8c babc 6b08 3abd
00000120: 16ff c23c 13ae 3cbd d220 f1bc 3656 e63c
00000130: bfec 3b3c 90de b5bd fc73 c43c fade 9dbd
00000140: 9c7c 0bbd c7b2 8dbd b159 743c ee7d 81be
00000150: 7cb1 cebd 6b1b d13d 366b 1cbc 8249 133c
00000160: 0dc0 49bd 836d 35bc 81a4 83bb 9e8d 11be
00000170: 79f6 97be 60bd 9dbe 0e58 523e 81da 933c
00000180: 5f7f d13b 188b 8f3e 2491 443d 2192 473d
00000190: 388c 083d ffd7 4d3b f915 53be e074 a73b
000001a0: 8d66 ab3d 775f 7b3c ca92 ca3d 510c 0e3e
000001b0: 0a14 ec3c 4e5d 8c3b 4955 37bd 6e4f d8be
000001c0: 134b fdbd ef78 e33c cbcc 873e b061 193d
000001d0: 6133 ccbc 72b6 f33c 9c75 c8bc 994a 663b
000001e0: 18a3 c83c c45a 363c 8cdb 0dbd 44d1 933c
000001f0: ac89 a73c d670 93bc 2401 d93a 13c6 39bd
00000200: cba0 f93c c0f2 783c 8587 443c 66c9 6dbd
00000210: 67d9 983c 0b8c 3fbd bbce cdbc 9e28 cb3b
00000220: 4b55 433a e2cb c93e 5e70 df3d 19c1 813d
00000230: ed9a 563d 9895 853d 0cdf 97ba 2116 c53c
00000240: 05e0 22bd c134 c1bd 2f96 adbd 99b2 543e
00000250: 5677 32bd 90d8 253d 5849 73bd 8d9a 1abe
00000260: c05e e03c d2d5 b2bd 587e 81bd 9238 3abd
00000270: 0f2f 903d 2412 363c 3edb 9b3c 28b2 eb3c
00000280: f5d6 3bbd 1f96 2bbd 9463 683c af21 883c
00000290: 00b8 303d aec0 be3e e6dc 653d 4380 203d
000002a0: dfaa 1dbe 1033 cc3c c7f7 ac3b 8c4a 18bd
000002b0: b2f4 a03c e64b a63b d8ab 82bc 689a adbc
000002c0: 155c 4f3d 87eb 0a3c 15ff abbd df56 703b
000002d0: 30c9 853d ddfa 443c dd9b 0abd c9e7 ec3c
000002e0: 53be c43c f597 7ebd d6f6 05bb e375 973c
000002f0: 2600 ca3b 6c93 03bd 75fb 613b aeef 98be
00000300: d528 65bd 93fe 563d 27fd 85bc 1920 01bd
00000310: 6119 f53c b159 bd3b 86b0 5f3d 00cd 16be
00000320: 5337 7abe ccb2 83be 0b9c 8b3e 5946 e73c
00000330: 0435 79bc 9a5b 2a3e 1c34 e23c 7aab 583c
00000340: a026 533c 763c 4f3d 39fc 7ebe 5c4c 2c3c
00000350: 5ea8 c9bb 1f64 11bd ba3a ad3d d508 843d
00000360: b39a a13c 7765 bc3d 7337 17bd 1a90 7bbe
00000370: 6068 bcbd 6b74 d0bc 2def 753e a4f0 36bd
00000380: 8829 a7bb 5824 cf3b 2493 1c3d 483e f2bb
00000390: e208 813c f7d7 073d e62a febd b627 62bd
000003a0: b286 26bd 38e7 acbc b7df d8bc 0676 cebc
000003b0: 664a e4bc 6f87 77bd da37 733d f86f f03b
000003c0: da87 d93c cff0 043d 7ebe f8bc 80e0 463d
000003d0: 1e48 873c 2ccf ef3e bc89 bfb9 8616 f03a
000003e0: 2883 2cbb e11c 3cbd 120d 9c3d 2e1f a03d
000003f0: 8821 eabb 472b 69bd 7fff 08bd 3a04 633e

blocks.0.self_attn.key.weight f4 [27, 54]
-0.029470181 0.14464703 -0.22201544 0.21664609 0.15051042 0.07468964 0.1519006 0.05006023
-0.23096834 -0.08815123 -0.1900379 -0.10725819 0.07185276 -0.039149553 -0.04158288 -0.060584407
0.04451005 -0.121333055 -0.05909359 0.002263085 0.021666184 -0.044142026 -0.07656709 -0.18133038
0.11746839 -0.3981057 -0.1697651 0.016140098 0.008032903 -0.07130351 0.053374045 0.2631551
0.14927025 0.056065477 0.14351742 -0.060448248 -0.20120627 -0.043439034 -0.07168555 -0.052878194
-0.020750534 0.46955526 -0.20008437 -0.08508448 0.3037505 0.0066158334 0.118341364 -0.16998255
0.16391777 -0.15073046 -0.05290533 0.08098336 -0.20126618 0.054042224 -0.040706757 -0.062164154
0.017477585 -0.10753848 0.058631882 -0.18459378 -0.5917066 -0.07245559 0.08566682 0.007301345
0.2143706 -0.058546733 -0.36456737 0.1189791 0.038750645 0.010138227 0.3036195 0.09098715
0.015230986 0.11225389 0.19185041 0.06612346 0.03974085 0.077316776 -0.11959234 0.3292488
0.029233316 -0.24918665 -0.115354806 -0.3461603 0.035376273 -0.24473727 -0.16902138 0.008549423
-0.24612822 -0.21193564 -0.05122559 0.30041835 0.32619444 -0.26024503 0.12637311 -0.39822695
0.11809692 0.29657933 -0.020162761 -0.025733342 -0.031775426 0.2096927 0.045650106 0.33588025
0.08344385 -0.023255972 0.15584901 -0.0777938 0.13025008 -0.07157673 0.05147058 0.114469655
0.10427818 0.1974834 0.083216175 0.09328738 0.21010317 0.07819421 0.08713058 -0.040438995
0.20445222 -0.029314868 0.09548861 -0.16212198 -0.16830592 0.5071503 -0.03345121 -0.17889944
-0.3386783 0.1892525 -0.06499033 0.047148183 -0.14191438 0.1977736 0.24239057 0.10409413
0.19603452 0.12013924 -0.22555384 -0.18793899 0.006443175 -0.26321596 0.089979224 -0.20020136
-0.12799579 -0.23556973 -0.16391481 0.22291675 0.40677866 -0.3645086 0.21277718 -0.10325473
-0.2548155 0.43331003 0.19842462 -0.16758685 -0.38536212 0.008281411 0.0001634621 0.06617526
0.1676162 0.1916819 -0.06912182 0.02475676 -0.11483311 0.031789064 0.056108035 -0.06799634
-0.49453044 -0.22312672 0.05954798 -0.04143676 0.16151811 -0.14627682 -0.18320386 -0.059610724
0.08707785 0.16370286 0.23650366 -0.11184433 0.052437495 0.041465774 0.17821555 0.0047378894
-0.0361888 0.113152556 0.113207996 0.20611092 -0.26103157 -0.20497483 -0.053071074 -0.37243786
-0.023070628 -0.039313976 -0.10931864 0.10551319 -0.17848675 -0.051954553 0.024753742 0.21214594
0.26194975 -0.41282532 -0.07859406 -0.14319983 0.1885235 0.52085096 0.08043004 -0.059155084
0.005366341 0.08862785 0.03118861 0.22549067 0.06567994 0.037302136 0.122847185 -0.1320077
-0.0006912466 -0.46490455 0.27363744 0.4395121 0.17308441 0.33376816 0.41893783 0.92998004
0.08735592 -0.2713017 -0.5151507 0.44025353 0.28036866 0.2554668 0.3925136 -0.14518444
0.013995097 0.38776657 -0.3678597 -0.18226531 -0.16654448 -0.0073790415 -0.4851195 -0.2987157
-0.0445604 -0.07307525 0.5560863 0.17281602 0.04671252 0.04420885 0.10187053 -0.18609992
0.16952898 -0.19029693 -0.012446586 -0.23481353 0.15223525 -0.33794576 -0.30596176 0.26189432
00000000: 736b f1bc 5a1e 143e 0458 63be 79d8 5d3e
00000010: 671f 1a3e e2f6 983d d58b 1b3e f50b 4d3d
00000020: f782 6cbe a288 b4bd 4c99 42be 2faa dbbd
00000030: 8a27 933d 485b 20bd cf52 2abd 5b27 78bd
00000040: 2c50 363d 777d f8bd 1f0c 72bd 4450 143b
00000050: 487d b13c 45ce 34bd 35cf 9cbd acae 39be
00000060: 4493 f03d 83d4 cbbe e7d6 2dbe 3d38 843c
00000070: 709c 033c 9307 92bd be9e 5a3d 44bc 863e
00000080: 4dda 183e eaa4 653d 3bf6 123e 9598 77bd
00000090: 0409 4ebe 21ed 31bd e0cf 92bd ce96 58bd
000000a0: 06fd a9bc 8c69 f03e ebe2 4cbe c640 aebd
000000b0: 2f85 9b3e a2c9 d83b f55c f23d e80f 2ebe
000000c0: 0fda 273e 1659 1abe 42b3 58bd 9bda a53d
000000d0: b918 4ebe 615b 5d3d 21bc 26bd d79f 7ebd
000000e0: 272d 8f3c 223d dcbd fc27 703d 2706 3dbe
000000f0: 157a 17bf 9963 94bd 1672 af3d 1f40 ef3b
00000100: f783 5b3e b3ce 6fbd 93a8 babe 50ab f33d
00000110: ffb8 1e3d ce1a 263c 0474 9b3e 7957 ba3d
00000120: 638b 793c 5ee5 e53d 6f74 443e bd6b 873d
00000130: 4dc7 223d 4258 9e3d d4ec f4bd 4c93 a83e
00000140: b57a ef3c c92a 7fbe 243f ecbd ec3b b1be
00000150: b6e6 103d 689c 7abe f113 2dbe e112 0c3c
00000160: 0909 7cbe a805 59be edd1 51bd 6fd0 993e
00000170: f502 a73e d63e 85be f467 013e 67e4 cbbe
00000180: ccdc f13d 3fd9 973e 602c a5bc bbce d2bc
00000190: f326 02bd afb9 563e 9bfb 3a3d 7ff8 ab3e
000001a0: 9ce4 aa3d 4f83 bebc e296 1f3e 5b52 9fbd
000001b0: 4760 053e d296 92bd d1d2 523d 116f ea3d
000001c0: cc8f d53d 1739 4a3e 3e6d aa3d 740d bf3d
000001d0: 4925 573e 4924 a03d 8471 b23d 5ca3 25bd
000001e0: ec5b 513e bc25 f0bc 888f c33d 4e03 26be
000001f0: 6358 2cbe 9ad4 013f 2304 09bd 6a31 37be
00000200: 3e67 adbe 68cb 413e a619 85bd 741e 413d
00000210: 0152 11be 2a85 4a3e 3c35 783e 4e2f d53d
00000220: 46bd 483e 900b f63d 96f7 66be 1473 40be
00000230: 4521 d33b 3ec4 86be 0747 b83d 9601 4dbe
00000240: 5411 03be 3139 71be 49d9 27be 4a44 643e
00000250: 4b45 d03e dfa0 babe 43e2 593e 3777 d3bd
00000260: 2d77 82be d0da dd3e d32f 4b3e e39b 2bbe
00000270: 2f4e c5be c1ae 073c 0667 2b39 e586 873d
00000280: 95a3 2b3e 4348 443e be8f 8dbd b0ce ca3c
00000290: 9f2d ebbd 4035 023d 8ad1 653d aa41 8bbd
000002a0: 1833 fdbe 557b 64be 95e8 733d 98b9 29bd
000002b0: 0165 253e 97c9 15be cb99 3bbe 602a 74bd
000002c0: df55 b23d b9a1 273e 042e 723e a40e e5bd
000002d0: b3c8 563d 04d8 293d 237e 363e 4c40 9b3b
000002e0: b53a 14bd 87bc e73d 98d9 e73d be0e 533e
000002f0: eea5 85be ece4 51be 0e61 59bd 2db0 bebe
00000300: 9dfe bcbc b107 21bd 73e2 dfbd 4d17 d83d
00000310: 3bc5 36be 4cce 54bd 5cc8 ca3c c93c 593e
00000320: 471e 863e d75d d3be ecf5 a0bd faa2 12be
00000330: 4e0c 413e 7d56 053f 81b8 a43d 9a4c 72bd
00000340: 22d8 af3b 8582 b53d 417f ff3c 07e7 663e
00000350: 3483 863d 20ca 183d 4e97 fb3d 072d 07be
00000360: c634 35ba f807 eebe 351a 8c3e bb07 e13e
00000370: 0a3d 313e a9e3 aa3e 057f d63e 2c13 6e3f
00000380: a9e7 b23d 0ee8 8abe ebe0 03bf e968 e13e
00000390: 7b8c 8f3e 8bcc 823e 8bf7 c83e 3bab 14be
000003a0: b14b 653c 5789 c63e 1b58 bcbe c2a3 3abe
000003b0: a38a 2abe e3cb f1bb 9561 f8be 44f1 98be
000003c0: f784 36bd 7aa8 95bd ac5b 0e3f aff6 303e
000003d0: a155 3f3d 5714 353d 7fa1 d03d fa90 3ebe
000003e0: 0199 2d3e 33dd 42be c4ec 4bbc f572 70be
000003f0: 8fe3 1b3e 3a07 adbe 05a7 9cbe 0317 863e

blocks.0.self_attn.value.weight f4 [27, 54]
-0.013203449 -0.0048025292 -0.030273622 -0.00067340577 -0.0032176063 0.037121646 -0.0021565442 -0.00011743359
-0.018704422 -0.04266246 -0.017867118 0.005304309 -0.011364316 -0.0063774106 -0.018888166 -0.006448518
0.0068543516 0.01248258 0.008930622 -0.0075296285 -0.011639152 0.018203082 -0.004816617 0.006971741
0.01134796 0.02386381 -0.0012911109 0.0055278125 -0.02197651 -0.0137539795 -0.018721761 0.025308529
-0.004212122 0.00029982545 -0.025339711 0.0025363944 0.01346669 0.008031665 -0.013536218 0.0027148903
-0.01062939 0.001484404 0.009133781 -0.028486777 -0.033337444 0.025647826 -0.015987478 -0.007399182
0.001565232 0.003690023 -0.012242512 0.029458204 -0.015599233 0.00046477694 0.014046849 -0.009410766
0.027116233 0.003436344 -0.0068697333 -0.006202077 0.014742591 -0.018297214 -0.0030172637 0.010972618
0.009870911 0.0065504927 -0.002995974 -0.012731433 0.0075371577 -0.015740123 -0.01303124 0.013460489
-0.01046522 -0.02108049 0.015287658 -0.030039914 -0.0076735946 -0.010898858 0.010448144 -0.030993482
-0.004578946 0.006622121 0.00019682606 -0.011893797 0.011284978 -0.00040104645 -0.0104911355 -0.009004164
0.0071090586 -0.004732752 -0.007901961 -0.0070295413 0.0029758585 0.0073264325 -0.002409225 -0.004332526
0.009460035 0.0031675624 0.0027085047 -0.0027437427 -0.009490837 0.0005654985 0.0026188318 0.016633537
0.005004462 -0.006717871 0.0024796335 -0.010215096 0.002939609 -0.0029054289 0.014288148 -0.0040907464
-0.0012074576 0.017093034 0.0122767035 0.011266872 0.045954105 0.0101840915 0.0012719663 -0.015206674
0.0025187586 0.00779219 0.02064087 -0.004161917 -0.008506072 -0.017649125 -0.020085841 -0.008549934
0.005946215 -0.004621964 0.019216986 0.00090236054 -0.009857033 -0.019355785 -0.0175886 0.005896099
0.01013915 -0.005523835 0.0082566915 -0.021837648 -0.017213315 0.0019566098 -0.007865716 -0.0020628218
-0.048401676 -0.001282701 0.00081353035 0.0046552373 -0.014515016 -0.0016018663 0.020893876 0.026374454
0.0003971023 -0.035159443 0.0026203867 -0.00507732 -0.00653576 -0.025731869 -0.0017635518 -0.014494067
0.015993347 -0.009011999 -0.020635927 -0.005919714 0.009351632 -6.54549e-05 -0.011235462 0.029034462
0.0022935856 -0.011318332 0.025063219 0.006280099 0.003957784 -0.029249651 -0.015237729 0.032160614
0.014674082 -0.0152296005 -0.004229032 -0.031058474 -0.023457963 -0.026016429 -0.012230154 0.0062570767
0.009178132 -0.030991312 -0.003777887 -0.012762962 -0.019197762 0.025204986 0.01368408 0.0063319514
0.00995663 -0.0017763758 -0.0014570587 -0.0059611276 -0.014712009 0.0037751992 0.011598257 -0.0016712558
0.010261129 -0.014381988 0.015027081 0.0045868345 -0.0031710658 -0.007103403 -0.009637218 -0.010489941
-0.007990841 0.023422929 0.0011950074 -0.025387261 -0.0042396556 -0.009302677 0.03531555 -0.0004147162
0.016908113 -0.002183774 0.023260847 -0.0062362016 0.015853914 0.019557973 0.012045066 -0.0006593868
0.0152121885 0.027120002 0.0063803466 0.02624653 0.010222206 -0.015168328 0.026330058 0.0017405461
-0.010308634 0.006096922 -0.0066066356 -0.018239444 0.010715356 -0.0018254113 0.022840094 -0.0055803494
0.018010527 -0.02095737 -0.027627898 -0.0007899096 0.023398409 0.008755488 0.011207798 -0.01902195
0.004937306 -0.003562869 0.007818457 0.0005636945 -0.03354947 -0.0025736135 0.012776784 -0.016819034
00000000: 4753 58bc 895e 9dbb 6300 f8bc 7f87 30ba
00000010: 7ade 52bb de0c 183d cf54 0dbb ae46 f6b8
00000020: 043a 99bc d5be 2ebd 105e 92bc c5cf ad3b
00000030: 6531 3abc 99f9 d0bb 5bbb 9abc 174e d3bb
00000040: 789a e03b bc83 4c3c be51 123c 1abb f6bb
00000050: 24b2 3ebc a11e 953c b6d4 9dbb 3473 e43b
00000060: cbec 393c 097e c33c 7e3a a9ba a722 b53b
00000070: 1508 b4bc 5f58 61bc 615e 99bc d553 cf3c
00000080: d705 8abb e431 9d39 3a95 cfbc a339 263b
00000090: 64a3 5c3c 3f97 033c 03c7 5dbc 4dec 313b
000000a0: e526 2ebc 5590 c23a dba5 153c 1a5d e9bc
000000b0: d88c 08bd 641b d23c 2cf8 82bc d674 f2bb
000000c0: 7928 cd3a 50d4 713b d194 48bc 5552 f13c
000000d0: ed93 7fbc 4ead f339 c124 663c 9d2f 1abc
000000e0: dd22 de3c 4934 613b 801b e1bb cb3a cbbb
000000f0: e98a 713c 0ae4 95bc 49bd 45bb 7fc6 333c
00000100: 9ab9 213c 84a5 d63b 1a58 44bb 8097 50bc
00000110: 43fa f63b 6ef1 80bc fb80 55bc 6289 5c3c
00000120: 5076 2bbc feb0 acbc 1679 7a3c 4416 f6bc
00000130: c772 fbbb 2091 32bc b12e 2b3c 0be6 fdbc
00000140: fc0a 96bb 61fe d83b 1863 4e39 33de 42bc
00000150: a1e4 383c 8b43 d2b9 03e3 2bbc 3386 13bc
00000160: 1bf3 e83b 3415 9bbb 3a77 01bc 1158 e6bb
00000170: 9f06 433b 9212 f03b 17e4 1dbb ddf7 8dbb
00000180: 43fe 1a3c e196 4f3b 2b81 313b 5dd0 33bb
00000190: 757f 1bbc f63d 143a b5a0 2b3b 0e43 883c
000001a0: 78fc a33b 9621 dcbb 5981 223b 385d 27bc
000001b0: 75a6 403b 0269 3ebb d618 6a3c ab0b 86bb
000001c0: 8e43 9eba b106 8c3c 3a24 493c b098 383c
000001d0: 5f3a 3c3d 2ddb 263c 1bb8 a63a 6a25 79bc
000001e0: c211 253b a155 ff3b 0b17 a93c b160 88bb
000001f0: 0d5d 0bbc e694 90bc 108b a4bc 0615 0cbc
00000200: 77d8 c23b d873 97bb f16c 9d3c 648c 6c3a
00000210: 657f 21bc 0690 9ebc f815 90bc 1034 c13b
00000220: ad1e 263c 4901 b5bb 1347 073c dee4 b2bc
00000230: f002 8dbc 773a 003b 34df 00bc 6830 07bb
00000240: d640 46bd 4e20 a8ba 1943 553a f68a 983b
00000250: 64d0 6dbc b7f5 d1ba a229 ab3c 3d0f d83c
00000260: 2b32 d039 5903 10bd cbba 2b3b a65f a6bb
00000270: ee29 d6bb a4cb d2bc fb26 e7ba 8678 6dbc
00000280: 7b04 833c 10a7 13bc ad0c a9bc 29fa c1bb
00000290: 9637 193c d544 89b8 f114 38bc aed9 ed3c
000002a0: fb4f 163b 8670 39bc 6151 cd3c 4ac9 cd3b
000002b0: 4cb0 813b f79c efbc aba7 79bc d9ba 033d
000002c0: 906b 703c 9385 79bc b193 8abb 576e febc
000002d0: ea2a c0bc 6820 d5bc fc60 48bc 2a08 cd3b
000002e0: e05f 163c 7ee1 fdbc 6d96 77bb be1b 51bc
000002f0: a044 9dbc b07a ce3c 3133 603c 427c cf3b
00000300: 2221 233c 48d5 e8ba c7fa beba 9055 c3bb
00000310: a30a 71bc 5569 773b 9e06 3e3c 0a0e dbba
00000320: 4b1e 283c 6ea2 6bbc 2534 763c 284d 963b
00000330: a8d1 4fbb aac3 e8bb 6ce5 1dbc 00de 2bbc
00000340: 04ec 02bc 71e1 bf3c cba1 9c3a f2f8 cfbc
00000350: cfec 8abb 416a 18bc 0aa7 103d 446e d9b9
00000360: e282 8a3c a61d 0fbb 888d be3c 0d59 ccbb
00000370: 11e0 813c 0b38 a03c ab58 453c b3da 2cba
00000380: 8b3c 793c c42a de3c 3a12 d13b f602 d73c
00000390: 0a7b 273c 9484 78bc 22b2 d73c 0923 e43a
000003a0: 8be5 28bc b0c8 c73b 7a7c d8bb e36a 95bc
000003b0: 768f 2f3c a442 efba 261b bb3c 5ddb b6bb
000003c0: d08a 933c caae abbc e753 e2bc f011 4fba
000003d0: 05ae bf3c 2e73 0f3c e9a0 373c ecd3 9bbc
000003e0: 20c9 a13b 067f 69bb fc18 003c e6c4 133a
000003f0: 2b6b 09bd 12aa 28bb b755 513c 12c8 89bc

blocks.0.self_attn.proj.weight f4 [54, 54]
0.0060674734 -0.0064452644 -0.00645921 -0.002548502 -0.0019142132 0.0029208406 0.0034321868 -0.0028511123
0.0072674397 -0.0035035654 -0.012449813 0.008750632 0.0088822795 0.00096090604 0.018611506 0.0055058994
-0.0007186283 -0.009805471 0.006183848 0.0013541457 -0.011338763 0.0010091992 0.0093989745 0.002481798
-0.0037823399 -0.0093086995 0.0129815815 0.0067952727 -0.012253004 0.004171191 -0.0057728225 0.006872965
-0.0039056642 -0.0042111804 -0.0014832543 0.013263678 0.011892729 -0.010434893 0.0045720865 0.015345215
-0.0014790349 0.013449233 0.012587369 0.0016519631 -0.008228205 -0.0025414652 0.0053881416 -0.015215315
-0.0023010965 0.014025384 0.0040956764 -0.00051121117 -0.01091009 -0.0008020085 0.008337108 -0.00041576062
0.0018643552 0.016893247 -0.0027280413 9.6378164e-05 0.010395027 -0.009961232 0.006087774 0.0051457766
-0.0004356121 0.018359235 -0.0026311432 -0.004598272 -0.009188037 0.011121139 0.013909829 -0.008452713
-0.0044439347 -0.0015783795 0.0022861946 -0.0044697416 0.00492442 -0.01624628 -0.0103607355 0.0040084384
-0.005287263 0.0031191874 0.0021676691 -0.0023241465 0.016700929 -0.0005297677 -0.00037970563 0.008736513
-0.0046989764 -0.003252377 0.0019298848 0.006139441 0.022687929 -0.001721145 -0.008342253 -0.006206157
0.009957837 0.011462005 0.0016002684 -0.00014084904 0.00527743 -0.003348982 -0.0013641013 0.0061742426
-0.007237973 0.0044080806 0.004864515 0.0005668376 -0.0054279077 -0.03239637 0.0019005107 0.007039652
-0.0089460695 -0.009242517 -0.002110851 -0.01301936 0.006014929 -0.0021377387 -0.019261023 0.0013964125
0.021703392 0.008701133 0.032851994 0.00013212167 -0.0010803784 -0.028075103 -0.0021324798 0.012085609
-0.032303263 0.0011001638 0.028090749 -0.006004116 0.0038803685 -0.0026169766 0.015304762 -0.0019490329
-0.027017917 0.0018410378 0.016962627 -0.01937445 -0.012129535 0.0001554889 -0.0030595951 0.0071722874
0.0057408265 -0.03667811 0.006170052 0.027989771 0.0054699574 0.03046256 0.00075849396 -0.002141041
-0.024938814 0.005520396 0.0053954073 -0.022488182 0.0034469964 0.031481892 -0.018939702 0.008753827
-0.0054850825 0.0012885572 -0.0012019794 -0.0011123298 0.0001890994 0.0002765967 6.2563e-05 -0.0006837592
-0.00015666173 -0.00071479066 0.0016636156 -0.0016906987 -0.0012325951 0.00048369472 -0.0009929938 1.633723e-05
-0.0009776776 -0.0009923093 -0.00033957523 0.00049393537 0.0003457875 0.0017087484 -0.0017198389 -4.6930407e-05
3.3956978e-05 0.0010467569 0.0024120829 0.0005571178 0.0009487207 -0.000392586 -0.0009365518 0.0007799269
0.0017794018 -0.00097301137 -0.00097084366 0.0003594513 -0.0006988005 0.00041187782 6.7067296e-05 -0.0011390576
1.3146256e-05 -0.0009856962 7.32299e-05 0.00032434182 -0.001281182 0.00054659613 0.0009646131 0.00047064677
-0.00042921727 0.0018844099 7.2574236e-05 -0.0007014447 0.00023407231 -0.0017415523 0.0015786691 -0.0003060894
0.002937902 -0.003159487 -0.0023978713 -0.0047125393 0.0037820837 0.0015999622 0.0031025482 -9.933148e-05
-0.0009504367 -0.0016756308 -0.002433002 0.004914093 0.00012123641 -0.0006232024 0.0003502164 0.0032951275
0.00019349882 0.0010013519 0.0019767403 0.00068757846 -0.0019103028 0.004915078 0.0046845656 0.0031801194
0.0014545744 -0.0033837731 0.0033808893 0.00012602756 0.0021795435 0.0010302599 1.939854e-06 0.0015845876
-0.0048657674 0.0058762594 0.0005388552 -0.0012210911 -0.0020302134 -0.00012785701 -0.00077120407 -0.0012162396
00000000: a8d1 c63b cc32 d3bb c8a7 d3bb c504 27bb
00000010: 56e6 faba 936b 3f3b 8aee 603b bad9 3abb
00000020: b423 ee3b 139c 65bb 4dfa 4bbc d05e 0f3c
00000030: fb86 113c 50e5 7b3a 2877 983c d56a b43b
00000040: 5462 3cba 20a7 20bc e0a1 ca3b 977d b13a
00000050: 38c6 39bc 1b47 843a 28fe 193c a9a5 223b
00000060: 22e1 77bb 8483 18bc b3b0 543c e1aa de3b
00000070: d3c0 48bc 7cae 883b f229 bdbb 9c36 e13b
00000080: 2cf6 7fbb f1fd 89bb c169 c2ba e64f 593c
00000090: b9d9 423c 1df7 2abc 71d1 953b 7f6a 7b3c
000000a0: 2ddc c1ba 2c5a 5c3c 413b 4e3c af86 d83a
000000b0: 98cf 06bc b68e 26bb 028f b03b a849 79bc
000000c0: fecd 16bb b9ca 653c 0635 863b cd02 06ba
000000d0: 3cc0 32bc e13d 52ba 5e98 083c 72fa d9b9
000000e0: 615d f43a b563 8a3c f0c8 32bb a21e ca38
000000f0: e74f 2a3c 6f34 23bc f37b c73b e79d a83b
00000100: de62 e4b9 1b66 963c 426f 2cbb 1aad 96bb
00000110: 6c89 16bc 7035 363c 0de6 633c 3f7d 0abc
00000120: 6d9e 91bb a1e1 ceba fbd3 153b e976 92bb
00000130: 075d a13b eb16 85bc 13c0 29bc 3859 833b
00000140: c740 adbb 486b 4c3b 740f 0e3b b550 18bb
00000150: 63d0 883c 1ce0 0aba 3a13 c7b9 9723 0f3c
00000160: dff9 99bb d525 55bb 30f4 fc3a 5d2d c93b
00000170: 09dc b93c 0b98 e1ba f2ad 08bc 055d cbbb
00000180: 3226 233c 22cb 3b3c 19c0 d13a e0b0 13b9
00000190: 4bee ac3b 987a 5bbb a5cb b2ba 4d51 ca3b
000001a0: 852c edbb a971 903b 8266 9f3b d497 143a
000001b0: 97dc b1bb 0eb2 04bd 8f1a f93a e2ac e63b
000001c0: 8992 12bc ed6d 17bc 3456 0abb 274f 55bc
000001d0: e218 c53b 4e19 0cbb 4bc9 9dbc d407 b73a
000001e0: 50cb b13c 328f 0e3c d08f 063d 248a 0a39
000001f0: 7c9b 8dba c2fd e5bc 13c1 0bbb b802 463c
00000200: 6d50 04bd 5f33 903a 921e e63c 2dbe c4bb
00000210: c84d 7e3b 9581 2bbb d3c0 7a3c b176 ffba
00000220: ae54 ddbc fa4e f13a 35f5 8a3c 2bb7 9ebc
00000230: f5ba 46bc bc0a 2339 7d83 48bb 8205 eb3b
00000240: 8b1d bc3b c93b 16bd 262e ca3b ce4a e53c
00000250: 543d b33b 9e8c f93c abd5 463a b550 0cbb
00000260: 7c4c ccbc 70e4 b43b f5cb b03b 2339 b8bc
00000270: 01e7 613b 28f3 003d 6f27 9bbc 366c 0f3c
00000280: 35bc b3bb cee4 a83a bc8b 9dba 98cb 91ba
00000290: fc48 4639 2e04 9139 4134 8338 4e3e 33ba
000002a0: 9045 24b9 ca60 3bba ad0d da3a 6f9a ddba
000002b0: 078f a1ba 6898 fd39 5827 82ba ef0b 8937
000002c0: 6b25 80ba 6010 82ba 0409 b2b9 717b 013a
000002d0: d04a b539 15f8 df3a 386c e1ba 24d7 44b8
000002e0: 076d 0e38 5533 893a 0914 1e3b 8b0b 123a
000002f0: 92b3 783a 00d4 cdb9 ed82 75ba 0274 4c3a
00000300: d13a e93a b011 7fba 3780 7eba bd74 bc39
00000310: b52f 37ba 4ef1 d739 7ba6 8c38 6e4c 95ba
00000320: bd8e 5c37 7a32 81ba 0193 9938 6c0c aa39
00000330: 56ed a7ba 7249 0f3a 17de 7c3a 24c1 f639
00000340: 9108 e1b9 4efe f63a ff32 9838 28e1 37ba
00000350: 4f71 7539 cc44 e4ba 58eb ce3a a07a a0b9
00000360: d189 403b 650f 4fbb 9b25 1dbb a56b 9abb
00000370: d6dc 773b d3b5 d13a 1f54 4b3b 2f50 d0b8
00000380: ba26 79ba d7a0 dbba 0073 1fbb 6606 a13b
00000390: 4d40 fe38 685e 23ba 409d b739 11f3 573b
000003a0: f2e5 4a39 cb3f 833a 338c 013b 9c3e 343a
000003b0: 2063 faba aa0e a13b fc80 993b 8d69 503b
000003c0: 6ba7 be3a 4bc2 5dbb e991 5d3b 4426 0439
000003d0: acd6 0e3b c909 873a 702e 0236 f0b1 cf3a
000003e0: 0471 9fbb a38d c03b f641 0d3a 050d a0ba
000003f0: 540d 05bb 5b11 06b9 a12a 4aba 3b6a 9fba

blocks.0.self_attn.proj.bias f4 [54]
-0.005019017 0.00092334265 -0.01068118 -0.0004170278 0.00089061016 -0.00055758713 0.00049593754 0.004273606
-0.0013442059 -0.008563014 -0.0048654336 -0.00830996 0.0056873783 -0.0019444316 -0.000664737 0.004453313
0.0019123077 0.0044184304 0.0025839193 0.0025532148 -0.0071230824 0.0065655163 -0.0041447193 0.0045374343
-0.0038561162 0.005555147 0.0025493132 -0.0024056598 -0.007384549 0.00026383315 -0.0055902726 0.0033610659
0.004482807 0.006405686 0.003539296 -0.0046948935 0.0054219943 -1.8955587e-05 8.546873e-05 -0.00018017332
-0.00027292554 -0.0028084745 -0.0045807674 0.00048394105 -0.0061192536 0.0042559863 0.006513221 -0.0007875261
-5.321992e-05 0.005329377 -0.005797915 0.004602219 -0.00059551024 0.009347765
00000000: 9176 a4bb 7a0c 723a 1e00 2fbc 86a4 dab9
00000010: d677 693a 0a2b 12ba ce01 023a 9b09 8c3b
00000020: 1130 b0ba e24b 0cbc 376e 9fbb 8026 08bc
00000030: 305d ba3b 4cdc feba bf41 2eba 19ed 913b
00000040: 66a6 fa3a 7bc8 903b f956 293b d653 273b
00000050: bf68 e9bb 8b23 d73b 6dd0 87bb c2ae 943b
00000060: e5b6 7cbb f307 b63b 6112 273b 46a8 1dbb
00000070: 16fa f1bb 1653 8a39 9b2e b7bb 5445 5c3b
00000080: 83e4 923b cae6 d13b 89f3 673b 9fd7 99bb
00000090: fcaa b13b d002 9fb7 ad3d b338 e8ec 3cb9
000000a0: 7217 8fb9 620e 38bb 431a 96bb 78b9 fd39
000000b0: 0584 c8bb cd75 8b3b dc6c d53b fb71 4eba
000000c0: 7438 5fb8 0ea2 ae3b 70fc bdbb 36ce 963b
000000d0: 041c 1cba 5e27 193c
